Projekt01-triage/AutogluonModels/ag-20230308_233632/models/NeuralNetFastAI/model-internals.pkl (torch, 171970 bytes, 27 tensors)

weight f4 [3, 3]
0	0x3dce8da6	0.10085611
1	0xbcf5fee8	-0.030028775
2	0xbe3c0061	-0.1835952
3	0x3d0cb61c	0.03435336
4	0x3d2bff5a	0.04199157
5	0xbc2348ac	-0.009966057
6	0xbde2af98	-0.11068648
7	0xba30412c	-0.00067235786
8	0x3ded6992	0.115924016

weight f4 [4, 3]
0	0x3ba932b5	0.0051635155
1	0xbc561893	-0.013067382
2	0x3afa8afc	0.0019114907
3	0x3d33c495	0.043888647
4	0x3ddc2170	0.10748565
5	0x3d37ce67	0.044874575
6	0x3d03d8d4	0.032189205
7	0xbe1d0691	-0.15334536
8	0x3caa6a3c	0.02080261
9	0xbd1d6adc	-0.038431987
10	0x3d67d6d4	0.05660136
11	0xbd9d4de8	-0.07680875

weight f4 [4, 3]
0	0x3ae4bc28	0.0017451094
1	0xbc17f2ad	-0.009274167
2	0xbc759290	-0.0149885565
3	0x3d5464fe	0.051854126
4	0x3c7c544e	0.015400959
5	0xbcbae02f	-0.022811977
6	0xbd2e8cac	-0.042614624
7	0xbdaf5e1b	-0.08562871
8	0x3da0c0c7	0.07849269
9	0x3da05e4b	0.07830485
10	0x3d7375bd	0.059438456
11	0xbd7e94ce	-0.06215363

weight f4 [4, 3]
0	0xbbbcd327	-0.005762476
1	0x393902d4	0.00017644028
2	0x3aac06ab	0.0013124546
3	0xbce9d20b	-0.02854254
4	0xbd9fd5e1	-0.07804466
5	0xbd783a08	-0.060602218
6	0x3d29bd48	0.04144028
7	0x3e1f30cb	0.15545957
8	0x3db7cdc2	0.08974792
9	0x3cb03c01	0.021512987
10	0xbd73f956	-0.059563957
11	0xbdb1f357	-0.086889915

weight f4 [4, 3]
0	0xbbb8cd0e	-0.005639679
1	0xbc3c2cfe	-0.011485336
2	0xbba3de66	-0.005000877
3	0xbd31921b	-0.043352228
4	0x3d168df2	0.036756463
5	0x3caca97a	0.021076906
6	0x3cb1ccc4	0.021704085
7	0xbd91b616	-0.07114808
8	0x3d280609	0.04102138
9	0xbe204bbe	-0.15653893
10	0x3dc1e5de	0.09467672
11	0x3e13221f	0.14368485

weight f4 [5, 4]
0	0x3c731738	0.014837079
1	0xbbe4897f	-0.0069743986
2	0x3aeba04e	0.0017976852
3	0x3c5e16d3	0.013555246
4	0xbd25f524	-0.040516987
5	0xbd69ec3c	-0.057110056
6	0x3da8a32a	0.08234246
7	0xbd68fe50	-0.056883156
8	0xbb4929a1	-0.0030694979
9	0xbd18d29e	-0.037310235
10	0x3d7aa3f9	0.061191533
11	0xbd90c6f5	-0.07069198
12	0x3ccaac85	0.024740467
13	0xbcd7d1ed	-0.026345218
14	0xbcc09227	-0.02350719
15	0xbcadf280	-0.021233797
16	0x3c3177c1	0.010831774
17	0x3da53db9	0.08068413
18	0xbdacd977	-0.084399156
19	0x3dc2dc99	0.09514732

weight f4 [5, 4]
0	0x3bd22bcc	0.0064139124
1	0x3c9d68bf	0.019214986
2	0xbaa25de4	-0.0012387601
3	0x3b40b3c9	0.0029404035
4	0xb92136d8	-0.00015374587
5	0x3e443db9	0.1916417
6	0xbde2f604	-0.1108208
7	0x3d07f2b1	0.033190433
8	0x3d3e0861	0.04639471
9	0x3bbeac7a	0.0058189007
10	0x3d605e56	0.054777466
11	0x3cf7ffef	0.030273406
12	0xbb95a637	-0.0045669335
13	0xbb761a9f	-0.0037552489
14	0xbc003b3f	-0.007826625
15	0x3d3507a7	0.04419675
16	0xbda34f4f	-0.07974111
17	0xbcc60d30	-0.02417621
18	0x3c9e4e02	0.019324306
19	0xbddc7a26	-0.107654855

weight f4 [4, 3]
0	0x3c09c337	0.008408359
1	0xbc4e3f3f	-0.012588321
2	0xbb9433ca	-0.0045227753
3	0x3cf9da53	0.030499613
4	0xbd6fd138	-0.058549136
5	0xbd0c4ae0	-0.034251094
6	0xbde30bcb	-0.11086234
7	0x3d88a4ac	0.06672034
8	0x3c7786ef	0.015107854
9	0x3cb9a87e	0.022663351
10	0xbc9a1241	-0.018807532
11	0xbcabbfd9	-0.020965504

weight f4 [4, 3]
0	0x3b138b23	0.0022513352
1	0x3c20ab9a	0.009806538
2	0x3b6ae451	0.0035841654
3	0xbd0a014e	-0.03369265
4	0xbd3cf6cf	-0.046133813
5	0xbdffd057	-0.124909095
6	0x3d167a40	0.03673768
7	0x3d98e896	0.07466237
8	0x3e0d092d	0.13773032
9	0xbc4fdd6f	-0.012687071
10	0xbdedf975	-0.11619846
11	0xbe0bd181	-0.13654138

weight f4 [4, 3]
0	0x3c18700b	0.009304057
1	0xba840252	-0.0010071492
2	0xbbf26429	-0.007397194
3	0xbde1aa92	-0.11018862
4	0x3cff98c4	0.031200774
5	0x3defa15b	0.11700698
6	0x3d9ed909	0.0775624
7	0xbc20cec6	-0.009814924
8	0xbcbdbd32	-0.023161504
9	0xbc474a75	-0.012163748
10	0xb8df03b0	-0.000106341555
11	0xbcac1330	-0.021005243

weight f4 [4, 3]
0	0x3b64fcc0	0.003494069
1	0xbb113e86	-0.002216251
2	0xbc02036b	-0.007935385
3	0xbd3f7df6	-0.046750985
4	0x3c80be07	0.015715612
5	0xbd46853a	-0.0484669
6	0x3e04f2b3	0.12983207
7	0xbd6c4405	-0.057682056
8	0x3d4a5df5	0.04940601
9	0xbdea2d22	-0.1143439
10	0x3d90917f	0.07059001
11	0xbda6a067	-0.08136063

weight f4 [2]
0	0x3f69e072	0.913581
1	0x3f577f63	0.8417875

bias f4 [2]
0	0x3dd3790f	0.103258245
1	0xbc16a3bc	-0.009194311

running_mean f4 [2]
0	0xbacc1737	-0.0015570883
1	0xbca4f765	-0.020137498

running_var f4 [2]
0	0x3f7c1dae	0.9848279
1	0x3f801e57	1.0009259

weight f4 [200, 37]
0	0xbdaf8d36	-0.08571856
1	0x3dc32a82	0.09529592
2	0xbd847527	-0.064676575
3	0x3d6ddf5c	0.05807434
4	0x3e1708ba	0.14749423
5	0x3e2a8e4a	0.16655841
6	0x3e0d4f10	0.13799691
7	0x3dcc6fcf	0.09982263
8	0xbbed70fc	-0.007246135
9	0xbdb41354	-0.08792749
10	0x3d5fb220	0.054613233
11	0x3e11dfed	0.14245577
12	0xbd654cd8	-0.055981487
13	0xbde6ae99	-0.112637706
14	0xbd5dfae0	-0.05419433
15	0x3e1ae20b	0.15125291
16	0x3d51df9a	0.051238634
17	0xbe22261d	-0.15834852
18	0xbdfcb87b	-0.12339874
19	0x3de142bd	0.109990574
20	0xbc315273	-0.01082288
21	0xbe059f33	-0.13049011
22	0x3e0bceab	0.13653056
23	0x3cb2f6ed	0.021846259
24	0x3e4a3333	0.19746093
25	0x3e100f6b	0.14068381
26	0x3b6956b5	0.003560466
27	0xbd80f6f9	-0.06297106
28	0xbe097640	-0.13424015
29	0x3e595bcd	0.21226425
30	0xba1d4c43	-0.00060004386
31	0x3d54b2a8	0.051928192
32	0xbe68c2b2	-0.2273052
33	0x3e678e1a	0.22612801
34	0x3d6a9716	0.057272993
35	0x3e081b69	0.13291706
36	0xbe20e8ac	-0.15713757
37	0xbdfb71a7	-0.12277537
38	0xbdb9b606	-0.09067921
39	0x3e60a88c	0.21939296
40	0xbd6e7bc8	-0.058223516
41	0xbdd05557	-0.10172527
42	0x3dac3499	0.0840847
43	0x3d4dade0	0.05021465
44	0xbb20cbf0	-0.0024535619
45	0xbdc044c5	-0.09388117
46	0xbdb96a02	-0.090534225
47	0xbe082f98	-0.13299406
48	0x3e2872ba	0.16450015
49	0xbe01515b	-0.12628691
50	0x3e0062e8	0.1253773
51	0x3e6de21a	0.23230782
52	0x3dbcf4e7	0.09226399
53	0xba262a52	-0.00063387037
54	0x3e39b617	0.18135868
55	0x3d04b93b	0.032403212
56	0xbda293b4	-0.079383284
57	0x3e7df605	0.2480088
58	0xbca16113	-0.019699609
59	0xbd9d0127	-0.076662354
60	0xbd358143	-0.044312727
61	0xbe3359b3	-0.17514686
62	0x3d9d3776	0.07676594
63	0xba861418	-0.0010229377
64	0xbdba44d3	-0.090951584
65	0xbdc7543b	-0.097328626
66	0x3e005b0c	0.12534732
67	0x3dadb302	0.08481409
68	0x3d8cfffb	0.06884762
69	0xbd3dbf6a	-0.046325125
70	0x3ce2bcbd	0.027677888
71	0xbda03687	-0.078229
72	0xbd28c25c	-0.04120098
73	0xbe48d954	-0.19614154
74	0xbdfd1f7f	-0.12359523
75	0x3de1106f	0.109894626
76	0xbdba97ab	-0.091109596
77	0x3c9fb3cf	0.01949492
78	0xbc23e290	-0.010002747
79	0x3d2280d8	0.039673656
80	0xbd491fdd	-0.049102653
81	0x3e3dc0bf	0.18530558
82	0xbddafe3e	-0.10693024
83	0x3e3a4f44	0.181943
84	0xbc9db94d	-0.019253397
85	0x3da6c9c0	0.081439495
86	0x3e097f7a	0.13427535
87	0xbda4da86	-0.080494925
88	0x3d25e577	0.040502038
89	0xbdc2564b	-0.09489115
90	0xbda5b5d0	-0.080913186
91	0xbdb92c73	-0.09041681
92	0x3d6ec4fa	0.05829332
93	0x3e53ac87	0.20671283
94	0xbdd98066	-0.10620193
95	0x3dcbd498	0.099526584
96	0xbcccbddd	-0.024992878
97	0x3c7c9854	0.015417177
98	0x3d822c80	0.06356144
99	0xbe3bac60	-0.18327475
100	0x3dc50cd7	0.0962159
101	0x3e335ae5	0.17515142
102	0x3d8a601a	0.06756611
103	0x3e109c34	0.14122087
104	0xbd9793b6	-0.074012205
105	0x3e02bc16	0.12767062
106	0xbe23ef73	-0.16009311
107	0xba9da560	-0.0012027435
108	0xbd6bad06	-0.057538055
109	0x3d17181a	0.03688822
110	0x3db5cd14	0.08877006
111	0x3e69de53	0.22838716
112	0xbd83a4d7	-0.06427925
113	0xbe033f4d	-0.12817116
114	0x3dfc2604	0.123119384
115	0xbd1aab00	-0.037760735
116	0x3e25451d	0.16139646
117	0xbe49dbee	-0.19712803
118	0xbd8322ce	-0.06403123
119	0x3cf4d53d	0.029886836
120	0x3d7bf48d	0.06151252
121	0x3d8cb373	0.06870165
122	0xbdb799c1	-0.08964873
123	0xbd5e2a87	-0.054239776
124	0x3e2d2629	0.16909088
125	0xbd1c33c8	-0.03813532
126	0x3de88b2a	0.113546684
127	0xbd97faba	-0.07420869
128	0x3d75c005	0.059997577
129	0x3e46e859	0.19424571
130	0x3ba5f510	0.005064614
131	0xbe5bad84	-0.2145291
132	0x3de8f808	0.11375433
133	0xbe29d78b	-0.1658613
134	0x3d7672b8	0.060167998
135	0x3d490621	0.04907811
136	0xbd066a02	-0.03281594
137	0xbca280ad	-0.019836748
138	0xbe165e23	-0.14684348
139	0x3dd37833	0.103256606
140	0xbe360914	-0.177769
141	0xbd1f493d	-0.038888205
142	0x3b652848	0.0034966636
143	0x3e6226ee	0.22085163
144	0xbe061c4d	-0.13096733
145	0x3e460965	0.19339521
146	0xbccdca2b	-0.025120815
147	0xbd873e7c	-0.06603715
148	0xbe20d773	-0.15707187
149	0xbdfe2828	-0.12410003
150	0x3e41db0b	0.18931215
151	0xbd28cf4f	-0.04121333
152	0xbdefb1c0	-0.11703825
153	0x3dc70e45	0.097195186
154	0x3dc66b8c	0.09688482
155	0x3df619cc	0.12016639
156	0x3e161966	0.14658126
157	0xbe20f9d3	-0.157203
158	0xbde2fd8b	-0.11083516
159	0xbe1d4763	-0.15359263
160	0xbdba89fe	-0.09108351
161	0x3d90d1a5	0.070712365
162	0x3e2c345b	0.16816847
163	0xbe1f005f	-0.15527485
164	0x3d874684	0.06605247
165	0xbcc43c57	-0.023954554
166	0xbdd628d9	-0.1045701
167	0x3e2d8268	0.16944277
168	0xbb9603f3	-0.0045781075
169	0xbdb2745d	-0.08713601
170	0xbdf52fd6	-0.119720146
171	0x3e087ca6	0.133288
172	0xbb0b35eb	-0.0021241854
173	0xbdd782e0	-0.10523009
174	0xbd8df3b4	-0.06931248
175	0xbdfa24fd	-0.12214086
176	0xbe4b0754	-0.19827014
177	0xbd82221d	-0.06354163
178	0x3e259b29	0.1617247
179	0xbca0e4d1	-0.019640358
180	0x3df79abc	0.1209006
181	0x3d9c1e9d	0.076230265
182	0x3d93c64f	0.07215559
183	0xbe094a23	-0.13407187
184	0x3c97e8ae	0.018543568
185	0x3cdfc68e	0.027316358
186	0xbdb7006d	-0.08935628
187	0xbdf14894	-0.11781421
188	0x3e1c1690	0.15242982
189	0x3d032a22	0.032022603
190	0x3d986c52	0.074425355
191	0xbd865f1b	-0.06561109
192	0xbe295f5a	-0.1654028
193	0x3e631d17	0.22179066
194	0xbe4976c9	-0.19674219
195	0xbe89767f	-0.26848218
196	0xbd6d9dd8	-0.05801186
197	0x3cbf2ffd	0.023338312
198	0xbc8d506f	-0.017250268
199	0x3e081b34	0.13291627
200	0x3d47ff1b	0.048827272
201	0xbe58c72d	-0.2116973
202	0x3d49f725	0.04930796
203	0x3cf28e7d	0.02960896
204	0xbe07095a	-0.13187161
205	0xbe0187e9	-0.12649502
206	0x3d297d9a	0.04137955
207	0xbe060746	-0.13088712
208	0x3ddaac0b	0.10677346
209	0x3d94b1d5	0.07260481
210	0x3df372c6	0.11887126
211	0xbe364a7f	-0.17801856
212	0x3e0ab4c4	0.13545519
213	0xbe3b2551	-0.18275954
214	0x3dec9a20	0.115528345
215	0xbe32ba91	-0.17453982
216	0xbdc82d5b	-0.09774276
217	0x3e97f7ed	0.2968134
218	0xbdf7f074	-0.1210641
219	0x3e0e67be	0.13906762
220	0xbd7941a3	-0.06085361
221	0xbc936539	-0.017992603
222	0xbd9aba9a	-0.07555123
223	0xbe262861	-0.16226341
224	0x3dde8d11	0.1086675
225	0x3ce0180d	0.027355218
226	0xbe23df8e	-0.16003248
227	0xbbef30ba	-0.00729951
228	0x3e2ed761	0.17074348
229	0x3d814d87	0.06313615
230	0xbdaf2d48	-0.085535586
231	0xbe2fdefc	-0.17174906
232	0xbe913f3d	-0.2836856
233	0xbe845c7c	-0.2585181
234	0xbe078b8b	-0.13236825
235	0x3d35779e	0.04430353
236	0x3db70ea6	0.08938341
237	0xbcc19ed8	-0.023635313
238	0xbceb479c	-0.02872067
239	0xbc3f4dfc	-0.011676308
240	0xbe07c005	-0.13256843
241	0x3e175c02	0.14781192
242	0x3e1171eb	0.14203613
243	0xbe05c248	-0.13062394
244	0x3de11df2	0.1099204
245	0x3dd928ea	0.10603507
246	0xbdc3b712	-0.09556402
247	0xbdd4fd85	-0.103999175
248	0xbcbe3a57	-0.023221178
249	0xbe55a1c3	-0.20862488
250	0xbe03184f	-0.12802242
251	0x3dd701dc	0.104984015
252	0xbdf05da5	-0.11736611
253	0x3d2b4db0	0.041822135
254	0xbd0870a4	-0.033310547
255	0x3df99d3e	0.12188195

weight f4 [200]
0	0x3f73418a	0.9502188
1	0x3f7810c3	0.96900576
2	0x3f6ddd07	0.92915386
3	0x3f7e2ae5	0.992842
4	0x3f79f1bd	0.9763449
5	0x3f76f80d	0.96472245
6	0x3f7fd7f8	0.9993892
7	0x3f774aef	0.96598715
8	0x3f7f054a	0.99617445
9	0x3f7f7cf0	0.99800014
10	0x3f8025cf	1.0011538
11	0x3f76dc3a	0.9642979
12	0x3f87c9dd	1.0608479
13	0x3f8359ca	1.0261776
14	0x3f7bd3f4	0.9837029
15	0x3f7172a2	0.9431554
16	0x3f84c556	1.0372722
17	0x3f863405	1.0484625
18	0x3f80f545	1.007485
19	0x3f814ee3	1.0102199
20	0x3f79c22a	0.97561896
21	0x3f7fa9df	0.9986858
22	0x3f86d32a	1.0533192
23	0x3f7d94b2	0.99055016
24	0x3f82af78	1.0209799
25	0x3f82fca8	1.0233355
26	0x3f73323c	0.94998527
27	0x3f81a280	1.0127716
28	0x3f7db795	0.9910825
29	0x3f92180c	1.1413589
30	0x3f7c1be7	0.98480076
31	0x3f854543	1.0411762
32	0x3f82bdfc	1.0214229
33	0x3f88b3ce	1.0679872
34	0x3f815f3e	1.0107191
35	0x3f77a4bb	0.96735734
36	0x3f76f393	0.96465415
37	0x3f746b4d	0.9547623
38	0x3f752b09	0.9576879
39	0x3f800c62	1.0003779
40	0x3f7cc6ac	0.9874065
41	0x3f7c17ff	0.98474115
42	0x3f88757f	1.0660857
43	0x3f768d95	0.9630979
44	0x3f75084f	0.957158
45	0x3f723975	0.9461892
46	0x3f79d186	0.9758533
47	0x3f79850f	0.97468656
48	0x3f801ee7	1.0009431
49	0x3f83e182	1.0303195
50	0x3f7ebff1	0.9951163
51	0x3f86cd8a	1.0531476
52	0x3f792ff3	0.9733879
53	0x3f819a3b	1.0125192
54	0x3f7905aa	0.9727427
55	0x3f7ee526	0.995684
56	0x3f839125	1.027867
57	0x3f7009b6	0.9376482
58	0x3f829f1d	1.0204808
59	0x3f740ffa	0.9533688
60	0x3f86a69d	1.0519596
61	0x3f800bf6	1.000365
62	0x3f810b98	1.0081663
63	0x3f78716a	0.97048056
64	0x3f783e9c	0.96970534
65	0x3f833104	1.0249333
66	0x3f898f0c	1.074678
67	0x3f795cba	0.97407115
68	0x3f8ad013	1.0844749
69	0x3f81cd4a	1.0140774
70	0x3f7f6cb0	0.9977522
71	0x3f7d6bf4	0.9899285
72	0x3f7e1e0d	0.99264604
73	0x3f902d17	1.126376
74	0x3f7f5ff4	0.9975579
75	0x3f8b8469	1.0899783
76	0x3f7f6e91	0.99778086
77	0x3f809cd6	1.0047863
78	0x3f798528	0.97468805
79	0x3f859d48	1.0438623
80	0x3f80e87f	1.0070952
81	0x3f77b1dc	0.96755767
82	0x3f8ab076	1.0835102
83	0x3f7c5e60	0.98581505
84	0x3f8301f8	1.0234976
85	0x3f78595d	0.9701136
86	0x3f7592a2	0.9592687
87	0x3f72b942	0.9481393
88	0x3f81fa24	1.0154462
89	0x3f8267dc	1.0187945
90	0x3f8577a7	1.042714
91	0x3f72aaaa	0.9479166
92	0x3f817205	1.0112921
93	0x3f7b7f1b	0.9824082
94	0x3f82eec6	1.0229118
95	0x3f7af3f1	0.98028475
96	0x3f82b72f	1.0212153
97	0x3f7a1d71	0.97701174
98	0x3f81ff2a	1.0155995
99	0x3f83293d	1.024696
100	0x3f81bdcb	1.0136045
101	0x3f826dc1	1.0189744
102	0x3f7ed52e	0.99544036
103	0x3f7a2f4e	0.9772843
104	0x3f822e4b	1.0170377
105	0x3f745fd6	0.95458734
106	0x3f844316	1.0332973
107	0x3f742ca2	0.95380604
108	0x3f822b4a	1.0169461
109	0x3f82da61	1.0222894
110	0x3f7e5a60	0.9935665
111	0x3f815abb	1.0105814
112	0x3f828c9a	1.0199158
113	0x3f71b4a9	0.9441629
114	0x3f812f89	1.0092632
115	0x3f75b8d7	0.9598517
116	0x3f8000c7	1.0000237
117	0x3f82bd42	1.0214007
118	0x3f7a8779	0.97862965
119	0x3f83b5a4	1.0289807
120	0x3f7b925d	0.9827021
121	0x3f870198	1.0547361
122	0x3f7b7281	0.98221594
123	0x3f74d3aa	0.95635474
124	0x3f79bf3c	0.97557425
125	0x3f76bbc7	0.96380275
126	0x3f7a717a	0.978294
127	0x3f7487fb	0.9551999
128	0x3f86c9f5	1.0530382
129	0x3f7af80b	0.98034734
130	0x3f7b66eb	0.98203915
131	0x3f83ecb1	1.0306607
132	0x3f7abce7	0.9794449
133	0x3f7962ef	0.97416586
134	0x3f821e8d	1.0165573
135	0x3f71161c	0.9417436
136	0x3f7f1b18	0.99650717
137	0x3f8282ae	1.019613
138	0x3f8317c0	1.0241623
139	0x3f824a8b	1.0178999
140	0x3f81622e	1.0108087
141	0x3f8478e2	1.034939
142	0x3f80856d	1.0040718
143	0x3f7d6a6d	0.9899052
144	0x3f6f054b	0.9336745
145	0x3f7ab6c3	0.9793512
146	0x3f7ba067	0.9829163
147	0x3f8569aa	1.0422871
148	0x3f7ffb0e	0.99992454
149	0x3f712f24	0.94212556
150	0x3f7fda30	0.999423
151	0x3f753ba8	0.95794153
152	0x3f7206f3	0.94541854
153	0x3f84d9a4	1.0378919
154	0x3f727d39	0.94722325
155	0x3f7d3683	0.98911303
156	0x3f7c90a1	0.98658186
157	0x3f7f09bb	0.9962422
158	0x3f79ad23	0.9752981
159	0x3f849e51	1.0360814
160	0x3f81b4a8	1.0133257
161	0x3f8202da	1.015712
162	0x3f7fd8f5	0.99940425
163	0x3f7c8c04	0.98651147
164	0x3f79e097	0.9760832
165	0x3f7f5b31	0.9974852
166	0x3f8200f9	1.0156547
167	0x3f7d4a6a	0.9894167
168	0x3f7d321f	0.98904604
169	0x3f7ae76a	0.9800936
170	0x3f825360	1.0181694
171	0x3f7f6da2	0.9977666
172	0x3f80a882	1.0051425
173	0x3f83b05c	1.0288196
174	0x3f6ea38a	0.9321829
175	0x3f84c4f5	1.0372607
176	0x3f79c1af	0.9756116
177	0x3f8446ca	1.0334103
178	0x3f80cfec	1.0063453
179	0x3f7bb241	0.9831887
180	0x3f749570	0.95540524
181	0x3f7bb689	0.983254
182	0x3f72f1f9	0.9490047
183	0x3f76087b	0.9610669
184	0x3f7611b2	0.9612075
185	0x3f784214	0.9697583
186	0x3f84ac5d	1.0365101
187	0x3f78103d	0.9689978
188	0x3f7155e1	0.94271666
189	0x3f7f582c	0.99743915
190	0x3f80a1d8	1.0049391
191	0x3f82a8da	1.020778
192	0x3f81c353	1.0137733
193	0x3f82ea7a	1.0227807
194	0x3f7c2065	0.9848693
195	0x3f6eba08	0.9325261
196	0x3f81511d	1.0102879
197	0x3f7d6fc1	0.9899865
198	0x3f8866b1	1.0656339
199	0x3f77bc48	0.9677167

bias f4 [200]
0	0x3d5eeac2	0.0544231
1	0x3c66900f	0.014072432
2	0x3d020447	0.03174236
3	0xbcdbbb3c	-0.026822679
4	0xbda38a2c	-0.079853386
5	0xbcb2a961	-0.021809282
6	0xbc515d8e	-0.012778653
7	0xbdaf11f9	-0.0854835
8	0x3d60e394	0.054904535
9	0xbd22011b	-0.039551836
10	0x3c740c4b	0.014895509
11	0xbcc227b9	-0.023700582
12	0x3c906ae9	0.017629104
13	0xbd2d0b2f	-0.042246994
14	0x3d10a549	0.03531388
15	0x3d8c68a4	0.06855896
16	0x3c01d639	0.00792461
17	0x3d01788d	0.031609107
18	0x3c85b243	0.016320353
19	0x3cb770f4	0.022392727
20	0x3ca5a61c	0.020220809
21	0xbc3e78b9	-0.011625462
22	0xba495280	-0.0007679835
23	0x3cc3f1d3	0.023919022
24	0x3cfb5a0b	0.030682584
25	0x3dbb340f	0.09140789
26	0xbc0d2ed1	-0.008617119
27	0x3d260e0b	0.040540736
28	0xbd4028c4	-0.046913877
29	0xbd20f784	-0.03929855
30	0x3dac0f97	0.08401411
31	0xbc263f70	-0.010146961
32	0xbd499870	-0.04921764
33	0x3d21111f	0.03932297
34	0x3ca90c9e	0.0206359
35	0x3cddf21a	0.027092982
36	0x3cbe5f83	0.023238903
37	0xbd44184c	-0.047874734
38	0xbd359214	-0.044328764
39	0x3d324047	0.04351833
40	0x3c73e51e	0.014886169
41	0xbcbe0466	-0.023195457
42	0xbc29095e	-0.010317175
43	0x3c804800	0.015659332
44	0x3a192906	0.00058426
45	0x3c5e4bac	0.013567846
46	0xbd4f8013	-0.05065925
47	0x3c5b1382	0.01337135
48	0xbd7324d4	-0.059361294
49	0x3afd01f0	0.0019302946
50	0x3d301170	0.04298538
51	0x3cdc9a40	0.02692902
52	0xbca203e0	-0.019777238
53	0x3d182db2	0.037152953
54	0x3d74ac40	0.059734583
55	0xbce11faf	-0.027480928
56	0xbd560d17	-0.052258577
57	0x3cb637a1	0.022243323
58	0xbc8c0a05	-0.017094621
59	0xbd193389	-0.037402663
60	0x3ba14af3	0.0049222647
61	0x3c2ebe37	0.010665468
62	0x3cd400a4	0.025879212
63	0x3d525a21	0.051355485
64	0x3c872bf0	0.016500443
65	0x3c87f630	0.016596884
66	0x3d251994	0.040307596
67	0x3d087ca6	0.033322
68	0x3c63f108	0.013912447
69	0xbbc49270	-0.005998902
70	0xbd711bb3	-0.058864307
71	0xbd08c5dc	-0.03339182
72	0xbd3e5fb9	-0.046478007
73	0xbd633b3b	-0.05547641
74	0x3d0d08b9	0.034432147
75	0x3c3328eb	0.010935049
76	0x3d84c980	0.064837456
77	0xbd183c81	-0.037167076
78	0xbd000957	-0.031258907
79	0x3c67cb1c	0.014147546
80	0x3802db40	3.1198608e-05
81	0xbdb3c57d	-0.08777902
82	0xbcf73a97	-0.030179305
83	0x3c237b58	0.009978138
84	0x3a26d530	0.0006364165
85	0xbc35e560	-0.011102051
86	0xbd10b674	-0.03533025
87	0xbcec5725	-0.028850148
88	0x3bfbf640	0.0076892674
89	0x3ce23222	0.027611796
90	0x3d8fceb7	0.070218496
91	0xbd57815b	-0.052613597
92	0xbd91aff4	-0.071136385
93	0xbad8bab4	-0.0016535134
94	0x3be582ce	0.0070041185
95	0x3dd71b92	0.105033055
96	0xbbb69718	-0.005572211
97	0x3d615b51	0.055018727
98	0x3c72eaef	0.01482652
99	0x3d895796	0.06706159
100	0xbcb8a8ac	-0.022541367
101	0xbd99f151	-0.075167306
102	0xbce21e6b	-0.027602395
103	0x3bc83ba7	0.0061106267
104	0x3ca1606f	0.019699303
105	0x3bffb52b	0.0078035793
106	0xbc973c7e	-0.018461462
107	0x3c808490	0.01568821
108	0x3da887b7	0.082290106
109	0x3d5d499a	0.05402527
110	0xbb812ad3	-0.0039418726
111	0xbd8f821a	-0.07007237
112	0x3ce55cc0	0.027998328
113	0x3d382351	0.044955555
114	0xbc26ed55	-0.01018842
115	0x3c4e6975	0.012598385
116	0xb989cf5e	-0.00026285177
117	0x3da4b6be	0.08042668
118	0x3c7e2317	0.015511296
119	0x3b9db5b4	0.0048129205
120	0x3d08127f	0.033220764
121	0xbc2e1a2e	-0.010626359
122	0x3caa08c2	0.02075613
123	0x3bb1de4b	0.0054281107
124	0x3a950660	0.0011369698
125	0xbc8497e7	-0.016185714
126	0xbc95e6e0	-0.018298566
127	0xbd16b28d	-0.036791373
128	0xbd724932	-0.059151836
129	0xbcf3e2b6	-0.02977119
130	0x3bab097e	0.0052196374
131	0xbb975caa	-0.0046192007
132	0xbd2a1828	-0.041526943
133	0xbc8d3fac	-0.017242275
134	0xbc787434	-0.015164424
135	0x3cb48146	0.022034299
136	0x3d3dc4ef	0.04633039
137	0x3c9d7f01	0.0192256
138	0x3a621bf3	0.00086253806
139	0xbbb7eedf	-0.0056131925
140	0xbc85b44e	-0.016321328
141	0x3d2c4914	0.04206188
142	0x3bcbd6fe	0.0062206974
143	0x3cc75433	0.024332142
144	0x3cc5c3ae	0.024141159
145	0xbcb63368	-0.02224131
146	0x3ccdc4cb	0.025118252
147	0xbc8ac2d3	-0.016938603
148	0xbd452b1e	-0.048136823
149	0xbb967790	-0.0045918897
150	0x3d247f77	0.040160622
151	0x3c31ebc0	0.01085943
152	0xbdd8cfa7	-0.105864815
153	0x3c370a9f	0.011171966
154	0xbbacd8a9	-0.0052748513
155	0x3c0cbc9b	0.008589889
156	0xbc3a990c	-0.011389028
157	0x3ca797c2	0.020458106
158	0xbd03d86b	-0.032188814
159	0xbcdc3121	-0.026878895
160	0xbd334437	-0.043766227
161	0x3c02abbc	0.007975515
162	0xbd211df3	-0.039335202
163	0xbd585003	-0.05281068
164	0x3d384ef4	0.04499717
165	0x3ca70bcf	0.020391373
166	0xbcbf2e40	-0.023337483
167	0x3da0e443	0.078560375
168	0x3d1d0907	0.038338687
169	0x3d0b9e60	0.034086585
170	0xbc9dc005	-0.019256601
171	0xbcaa735f	-0.020806966
172	0xbc19c875	-0.009386172
173	0xbc9fef60	-0.019523323
174	0x3d59dd06	0.0531893
175	0xbc4ea3f2	-0.01261233
176	0xbd82c61c	-0.063854426
177	0xbb488d5f	-0.0030601842
178	0xbb884905	-0.004159095
179	0xbd3b7185	-0.045762558
180	0xbccfd76d	-0.025371278
181	0xbd499f3a	-0.049224116
182	0x3ca3f6cf	0.020015148
183	0xbcca34bf	-0.024683354
184	0x3dbd7989	0.092516966
185	0xbb6dc818	-0.0036282595
186	0xbcce6f95	-0.02519969
187	0xbb378beb	-0.0028006982
188	0xbc2eb156	-0.010662397
189	0xbc351390	-0.011052027
190	0x3c6b22f3	0.014351594
191	0x3ce1a566	0.027544688
192	0xbd846abb	-0.0646567
193	0xbc6be178	-0.014397018
194	0x3cd9811e	0.026550826
195	0x3da7f917	0.08201807
196	0x3d51be7d	0.051207054
197	0xbc8aa473	-0.016924119
198	0x3d8a3671	0.06748665
199	0x3d1b147a	0.037861325

running_mean f4 [200]
0	0x3dc6d44a	0.0970846
1	0x3d8dfd78	0.06933111
2	0x3d7ce421	0.061741
3	0x3c1e51e8	0.009663083
4	0x3cc6a3fa	0.024248112
5	0x3c8cae65	0.017173002
6	0x3c8ee76c	0.017444335
7	0x3dc1383e	0.094345555
8	0x3dcade1d	0.09905646
9	0x3d9b2c04	0.07576755
10	0x3daf76a1	0.085675485
11	0x3c6defbb	0.014522488
12	0x3c1f724b	0.009731839
13	0x3d665e84	0.05624248
14	0x3d3c1165	0.045915026
15	0x3da994b2	0.082803145
16	0x3c97a5a0	0.018511593
17	0x3cefda1d	0.02927881
18	0x3d36cf5b	0.044631343
19	0x3d96a082	0.07354833
20	0x3d7fb32c	0.06242673
21	0x3d0f39d6	0.034967266
22	0x3dbac98e	0.09120475
23	0x3d9f2723	0.077711366
24	0x3db0350e	0.086038694
25	0x3dd23bba	0.10265298
26	0x3d2065fb	0.039159756
27	0x3d9d162e	0.07670246
28	0x3d3c11d8	0.045915455
29	0x3b816c99	0.0039497134
30	0x3d232c4a	0.03983716
31	0x3d0279ec	0.031854555
32	0x3d4ef962	0.0505308
33	0x3d91d6f2	0.07121076
34	0x3d1461e7	0.03622618
35	0x3d922818	0.071365535
36	0x3d59ae21	0.053144578
37	0x3d543b96	0.051814638
38	0x3d19865b	0.037481647
39	0x3d620aae	0.055185966
40	0x3ce492ca	0.027902026
41	0x3d82d315	0.06387917
42	0x3be68a72	0.007035547
43	0x3cf0426c	0.029328547
44	0x3dae8ce4	0.085229665
45	0x3da1ad8e	0.07894431
46	0x3d7e54f6	0.062092744
47	0x3cfaefa4	0.030631848
48	0x3d8d44b8	0.06897873
49	0x3cf5b2d6	0.029992502
50	0x3ca0e419	0.019640015
51	0x3c9ae5d4	0.018908419
52	0x3c87657f	0.01652789
53	0x3d84b5ff	0.064800255
54	0x3d7bd762	0.061484702
55	0x3d15189f	0.036400434
56	0x3bd4d96d	0.0064956457
57	0x3da321c6	0.07965426
58	0x3c11f00c	0.008907329
59	0x3cdfa898	0.027302071
60	0x3d0218da	0.03176198
61	0x3d7c7209	0.06163219
62	0x3d6eaddb	0.05827127
63	0x3d6a784f	0.05724364
64	0x3cb0318a	0.021507997
65	0x3dd34893	0.10316577
66	0x3d81913f	0.063265316
67	0x3d14cc61	0.036327723
68	0x3da3adc0	0.079921246
69	0x3d8b21c6	0.06793551
70	0x3d0b5c13	0.034023356
71	0x3d0b9f6d	0.034087587
72	0x3d0094bf	0.031391855
73	0x3d4fa666	0.0506958
74	0x3dd14419	0.10218067
75	0x3d3fdc42	0.046840914
76	0x3d3aeb4d	0.045634557
77	0x3d2282fb	0.039675694
78	0x3d4d1ec8	0.050078183
79	0x3d53f88f	0.051750716
80	0x3d164c3e	0.036693804
81	0x3d0fc57c	0.035100445
82	0x3b96a423	0.0045972033
83	0x3d27a1a4	0.040925637
84	0x3d760c47	0.060070302
85	0x3d302fe5	0.043014426
86	0x3d2c17a7	0.042014744
87	0x3da8bad8	0.082387626
88	0x3d34ca16	0.044138037
89	0x3d8d3b66	0.06896095
90	0x3dcecacd	0.10097275
91	0x3d5f1f6f	0.054473337
92	0x3d99aa11	0.07503141
93	0x3cc744b8	0.02432476
94	0x3c2658b0	0.010152981
95	0x3cfd1a74	0.030896403
96	0x3d2e6552	0.042577095
97	0x3d96f328	0.07370597
98	0x3dddbad0	0.10826647
99	0x3cf4a72b	0.029864868
100	0x3c31bfd7	0.010848961
101	0x3d6c2066	0.057648085
102	0x3d4e9381	0.05043364
103	0x3d71410b	0.05889992
104	0x3d2ddc05	0.042446155
105	0x3d2417c3	0.040061723
106	0x3d9eeeca	0.07760389
107	0x3da11c48	0.07866722
108	0x3d94dc30	0.0726856
109	0x3dc8703e	0.097870335
110	0x3c37add6	0.011210879
111	0x3ce00737	0.02734719
112	0x3dc341dd	0.09534047
113	0x3d40eace	0.047098927
114	0x3d5eb8b7	0.054375377
115	0x3d329e6b	0.04360811
116	0x3ccdd10c	0.025124095
117	0x3db5e6e3	0.08881929
118	0x3ce0dab3	0.027448034
119	0x3ce72c98	0.028219506
120	0x3da989c9	0.082782336
121	0x3ceef1bf	0.029168008
122	0x3d779b98	0.06045112
123	0x3db9daf8	0.09074968
124	0x3d3e307c	0.046432957
125	0x3d1b99cd	0.037988473
126	0x3d8af456	0.06784885
127	0x3ce76a99	0.028249072
128	0x3d0fd0e5	0.035111327
129	0x3d5ebce0	0.054379344
130	0x3d923924	0.07139805
131	0x3d082dfc	0.03324698
132	0x3d8534c0	0.06504202
133	0x3ceadeb5	0.028670648
134	0x3d562d55	0.052289326
135	0x3da17df8	0.07885355
136	0x3d825af1	0.06365002
137	0x3d806b71	0.06270493
138	0x3d4fa028	0.050689846
139	0x3c8ac552	0.016939793
140	0x3cbe16e2	0.02320427
141	0x3d73b439	0.059498046
142	0x3d77933a	0.06044314
143	0x3d176cff	0.03696918
144	0x3d1bb288	0.038012058
145	0x3d3fe23d	0.046846617
146	0x3d78299b	0.060586553
147	0x3d1c35f7	0.038137402
148	0x3b811a84	0.0039399285
149	0x3dba3519	0.09092159
150	0x3d3cf4ef	0.046132024
151	0x3cad1392	0.021127496
152	0x3b29cff6	0.0025911308
153	0x3db7b9e5	0.089710034
154	0x3d8c6323	0.06854846
155	0x3d7f3648	0.062307626
156	0x3d0061cc	0.031343266
157	0x3d937199	0.071994014
158	0x3d889cf4	0.066705614
159	0x3d7d4759	0.06183562
160	0x3d80d054	0.062897354
161	0x3daf2016	0.08551042
162	0x3cc3d1c7	0.02390374
163	0x3cef5307	0.029214395
164	0x3dafd452	0.08585419
165	0x3d0d584f	0.034508046
166	0x3d8e73b3	0.069556616
167	0x3b9a05f7	0.004700418
168	0x3d620c64	0.055187598
169	0x3d8a97c4	0.06767228
170	0x3d6c0fcc	0.057632253
171	0x3d32bf16	0.043639265
172	0x3c5e236f	0.013558253
173	0x3ca1369b	0.019679358
174	0x3ceb9ea1	0.028762164
175	0x3d145183	0.036210548
176	0x3c269f5b	0.010169829
177	0x3d8c3df5	0.06847755
178	0x3d0c74a1	0.034290913
179	0x3d520de6	0.051282786
180	0x3da24590	0.07923424
181	0x3d0b6e2c	0.034040615
182	0x3d931a28	0.07182723
183	0x3d3b80d7	0.045777168
184	0x3db6ad1d	0.089197375
185	0x3d75110a	0.059830703
186	0x3d83ce7b	0.064358674
187	0x3dbb1cb3	0.09136333
188	0x3d91b9ed	0.07115541
189	0x3d53ce0c	0.051710173
190	0x3d7e45f5	0.062078435
191	0x3dbc3000	0.09188843
192	0x3da4ca13	0.08046355
193	0x3d926218	0.07147616
194	0x3d56dbad	0.052455593
195	0x3d81f8ce	0.06346284
196	0x3d721987	0.059106376
197	0x3d547283	0.05186702
198	0x3ce869af	0.028370706
199	0x3d663d78	0.056210965

running_var f4 [200]
0	0x3c86366a	0.016383369
1	0x3bda89e8	0.0066692717
2	0x3bb3700d	0.005476004
3	0x3a90278e	0.0010998116
4	0x3afc3c52	0.0019244051
5	0x3adf0880	0.0017016083
6	0x3b027071	0.0019903446
7	0x3c631757	0.013860545
8	0x3c386aea	0.011255959
9	0x3c1dc66d	0.009629828
10	0x3c3138fb	0.010816808
11	0x3acee203	0.001578391
12	0x3ab03b39	0.0013445384
13	0x3bf21194	0.0073873494
14	0x3b7865d7	0.0037902498
15	0x3c3debff	0.01159191
16	0x3b23d3ff	0.0024998186
17	0x3b55644e	0.0032561007
18	0x3b949281	0.004534066
19	0x3c275311	0.010212676
20	0x3bb5b570	0.0055453107
21	0x3b2c48b7	0.0026288459
22	0x3cc04000	0.023468018
23	0x3c89d465	0.01682491
24	0x3c31c072	0.010849105
25	0x3c8fd5ee	0.017558064
26	0x3b503b45	0.0031773609
27	0x3c421446	0.011845654
28	0x3b85a39b	0.004078341
29	0x3a63f77b	0.000869624
30	0x3bcb3802	0.006201745
31	0x3b4fa92e	0.0031686532
32	0x3bb9af91	0.005666681
33	0x3b8b2be6	0.0042471765
34	0x3bb374c2	0.005476565
35	0x3bb8a7b1	0.0056352247
36	0x3b4e4d03	0.0031479008
37	0x3ba261ed	0.0049555213
38	0x3b23231a	0.0024892748
39	0x3c235512	0.009969013
40	0x3aff7116	0.0019488658
41	0x3be1debf	0.0068930085
42	0x3a88b430	0.0010429677
43	0x3b1010c7	0.0021982656
44	0x3c5a7335	0.013333132
45	0x3c577006	0.013149267
46	0x3b8d36d0	0.0043095127
47	0x3b294ba0	0.002583243
48	0x3c73a84b	0.014871667
49	0x3b2b9c48	0.002618568
50	0x3ae20687	0.0017244377
51	0x3ae54736	0.0017492536
52	0x3b0c90df	0.0021448655
53	0x3bb0efb1	0.005399667
54	0x3bddfd20	0.0067745596
55	0x3b6889e9	0.0035482591
56	0x3a8b9e24	0.0010651988
57	0x3c2e0ca8	0.010623135
58	0x3a77409d	0.00094319304
59	0x3b322e06	0.0027188077
60	0x3b1e7319	0.002417749
61	0x3c17bb82	0.009261014
62	0x3c5f39f6	0.013624659
63	0x3ba609d1	0.005067088
64	0x3afb979b	0.0019194962
65	0x3c4b393d	0.012403783
66	0x3b649221	0.0034877139
67	0x3b3f5997	0.0029197687
68	0x3b97e867	0.004635859
69	0x3ba96cc1	0.005170435
70	0x3b4748bd	0.0030408346
71	0x3b80ae73	0.003927046
72	0x3b640c3c	0.0034797331
73	0x3b4a709f	0.0030889881
74	0x3bef3054	0.0072994623
75	0x3b1511e5	0.0022746262
76	0x3be1f122	0.0068952003
77	0x3b8407ad	0.0040292353
78	0x3ba77e72	0.005111509
79	0x3b875a04	0.0041306037
80	0x3b19b691	0.0023454765
81	0x3b1377be	0.0022501792
82	0x3a68ad22	0.00088758965
83	0x3be3cf44	0.006952198
84	0x3c8245c1	0.015902402
85	0x3b528b3f	0.0032126454
86	0x3bfe0875	0.007752473
87	0x3c10e1f1	0.008842931
88	0x3b78746c	0.003791119
89	0x3b82ba58	0.003989499
90	0x3c92a12c	0.017899118
91	0x3b9f7352	0.004866042
92	0x3c3787e4	0.011201832
93	0x3b0aa3d6	0.0021154783
94	0x3aa6b515	0.0012718762
95	0x3b87beda	0.0041426243
96	0x3beb68f2	0.0071841413
97	0x3c05a99e	0.008158116
98	0x3cbaef22	0.022819106
99	0x3b3ce63b	0.0028823751
100	0x3ab5a8a7	0.0013859466
101	0x3bec6aec	0.0072148945
102	0x3b850ff2	0.0040607387
103	0x3c54b822	0.012983354
104	0x3b3b4e0c	0.0028580455
105	0x3b4bc90e	0.003109518
106	0x3c0f6e29	0.008754292
107	0x3bf2f408	0.0074143447
108	0x3bb0354c	0.005377447
109	0x3c935299	0.017983722
110	0x3a963202	0.0011458995
111	0x3b33d02f	0.002743732
112	0x3c54adf5	0.012980928
113	0x3bda985d	0.006670995
114	0x3c1091c5	0.008823817
115	0x3b3e554b	0.0029042538
116	0x3b2ed39f	0.002667643
117	0x3c380f54	0.011234123
118	0x3b2c53e2	0.0026295115
119	0x3ad8ca88	0.0016539851
120	0x3cb22423	0.021745747
121	0x3af7c953	0.0018904604
122	0x3bbc69c7	0.0057499143
123	0x3c177daa	0.009246269
124	0x3b81727f	0.0039504166
125	0x3b6901c3	0.0035554029
126	0x3c1fbe96	0.009750029
127	0x3b0bd76b	0.0021338116
128	0x3b9028df	0.0043994035
129	0x3b49ccc6	0.003079222
130	0x3c304d46	0.010760611
131	0x3ba026cc	0.0048874374
132	0x3bf43965	0.007453131
133	0x3b4df9bf	0.0031429378
134	0x3b4a6001	0.0030879977
135	0x3c99bc1f	0.018766461
136	0x3c760523	0.015015873
137	0x3bc90ea4	0.0061357785
138	0x3b4f78e9	0.0031657761
139	0x3aadfce3	0.0013274219
140	0x3aee6041	0.0018186645
141	0x3bc0ca9b	0.0058835275
142	0x3c3279f9	0.010893338
143	0x3b3c0b60	0.0028693303
144	0x3b905ac5	0.004405352
145	0x3b833a0e	0.0040047234
146	0x3bca67b3	0.0061769127
147	0x3bc14c3f	0.005898982
148	0x3a6674eb	0.0008791226
149	0x3c63823c	0.013886031
150	0x3b99bfa4	0.004692035
151	0x3b05d306	0.002041997
152	0x3a41e26c	0.0007396105
153	0x3cb623fe	0.02223396
154	0x3c1b3e54	0.009475309
155	0x3bedecc9	0.007260893
156	0x3b12b9c3	0.0022388555
157	0x3c2ab4df	0.0104191
158	0x3c937132	0.017998312
159	0x3b6028e6	0.0034204065
160	0x3bc5c42a	0.0060353475
161	0x3c084adc	0.008318629
162	0x3b706d2b	0.0036686163
163	0x3b608807	0.0034260766
164	0x3c11eac9	0.008906075
165	0x3b173f8b	0.0023078646
166	0x3c6f4d2b	0.014605801
167	0x3a5008fd	0.00079359097
168	0x3bac2fd5	0.0052547255
169	0x3be0cb59	0.0068601784
170	0x3bd1406e	0.0063858544
171	0x3b600c8b	0.0034187164
172	0x3b008523	0.0019610606
173	0x3b06ea63	0.0020586483
174	0x3b50d51e	0.003186531
175	0x3b6b9ae7	0.0035950483
176	0x3ace52ec	0.0015741265
177	0x3b82ded7	0.0039938497
178	0x3b0460e6	0.0020199358
179	0x3b6db46c	0.003627087
180	0x3c09d1c8	0.008411832
181	0x3bb83a27	0.0056221667
182	0x3be336c6	0.0069340197
183	0x3b2503e0	0.0025179312
184	0x3c126f75	0.008937706
185	0x3c5b0c48	0.013369627
186	0x3be20650	0.006897725
187	0x3c5e1506	0.013554817
188	0x3c0160a8	0.00789658
189	0x3ba0e9c3	0.004910679
190	0x3bbb74d1	0.0057207127
191	0x3c5248d9	0.012834751
192	0x3bb0c56f	0.0053946297
193	0x3c0049a1	0.0078300545
194	0x3b3c422b	0.0028725963
195	0x3c7845db	0.015153374
196	0x3bdb94b4	0.0067010764
197	0x3b6a4d65	0.0035751697
198	0x3affed72	0.001952572
199	0x3bde1406	0.0067772893

weight f4 [100, 200]
0	0x3d63cb2f	0.055613693
1	0xbd28b64c	-0.041189477
2	0x3d2e6834	0.042579845
3	0xbca2ea3c	-0.019887082
4	0x3ca2d5fc	0.019877426
5	0x3d1576ce	0.036490254
6	0x3d5b1928	0.053490788
7	0x3ceab5e6	0.028651189
8	0xbd2d739a	-0.042346574
9	0x3cfb38ae	0.030666675
10	0xbc7a3b22	-0.015272887
11	0xbd875b19	-0.066091724
12	0xbbc9db46	-0.0061601726
13	0xbc98b499	-0.018640803
14	0x3d539555	0.051656086
15	0x3cbf78b1	0.02337298
16	0x3da77f75	0.081786074
17	0xbd1926f2	-0.037390657
18	0x3da5425c	0.08069298
19	0x3e07a121	0.1324506
20	0xbd5b2ed8	-0.05351147
21	0x3dd46b17	0.10371988
22	0x3d2da026	0.042389058
23	0x3db2f266	0.0873764
24	0xbba5e9b5	-0.0050632604
25	0x3d646d27	0.05576816
26	0xbc12668d	-0.008935583
27	0xbbaafe58	-0.0052183084
28	0xbd2aa038	-0.041656703
29	0xbc48134e	-0.012211634
30	0x3dcab2ef	0.0989741
31	0xbcaebf20	-0.02133137
32	0x3d27de64	0.040983573
33	0xbdce01a6	-0.10058908
34	0x3db14333	0.08655395
35	0xbd8a416a	-0.06750758
36	0x3d365f24	0.044524327
37	0x3c66a294	0.014076848
38	0xbd8e8fa6	-0.069609925
39	0x3de16f6d	0.11007581
40	0xbd8beef1	-0.06832684
41	0xbd88da8a	-0.06682308
42	0x3d14cdc9	0.036329065
43	0xbd08d257	-0.03340372
44	0x3c10db4a	0.008841345
45	0x3d2831a3	0.041062962
46	0xbdb03df4	-0.086055666
47	0x3d2c8899	0.042122457
48	0xbcad0708	-0.021121517
49	0x379b7e80	1.8536346e-05
50	0x3d1c6c48	0.038189203
51	0xbd4f75b7	-0.05064937
52	0xbd309934	-0.043114856
53	0xbcca51a6	-0.024697136
54	0x3d2beea3	0.04197563
55	0x3c96b667	0.018397523
56	0x3dbfbae7	0.09361821
57	0x3d9ebfa9	0.077514
58	0xbd25d260	-0.040483832
59	0xbd654ff5	-0.055984456
60	0x3b1cd876	0.0023932732
61	0xbc00171e	-0.007818012
62	0x3c85c6e1	0.016330184
63	0x3c4556b5	0.012044598
64	0x3d987ccf	0.0744568
65	0xbd3b9f36	-0.045806132
66	0xbd6c9597	-0.057759847
67	0x3bbd520c	0.005777603
68	0xbdaa6417	-0.08319872
69	0xbb31141e	-0.0027020047
70	0x3ce4b167	0.027916623
71	0x3d97d9e8	0.07414609
72	0xbd891515	-0.06693474
73	0xbe17149a	-0.14753953
74	0xbc7fa575	-0.015603413
75	0x3b02aaf9	0.0019938333
76	0xbcb032bd	-0.021508569
77	0xbd472601	-0.048620228
78	0xbd949c92	-0.07256426
79	0x3c949898	0.018139169
80	0x3d00691c	0.03135024
81	0x3d5b9259	0.053606365
82	0xbcf44faf	-0.029823152
83	0x3d8e2c74	0.069420725
84	0xbd271bc9	-0.040797982
85	0xbd97da40	-0.07414675
86	0x3d6543c4	0.05597283
87	0x3d46627f	0.048433777
88	0xbcf27258	-0.029595539
89	0xbd3ed676	-0.046591245
90	0x3d2ce864	0.042213812
91	0x3d18ac30	0.037273586
92	0x3cada2a5	0.021195719
93	0xbce51efc	-0.027968876
94	0x3c8709d3	0.016484177
95	0x3d3f7cd7	0.046749916
96	0x3d1c6b13	0.03818805
97	0x3c241830	0.010015532
98	0x3d81e283	0.06342032
99	0x3d98f82b	0.07469209
100	0x3d9255b6	0.07145254
101	0xbd3c903f	-0.046036
102	0x3cf97293	0.030450141
103	0xbbd6529e	-0.0065406105
104	0xbd4d48e7	-0.050118353
105	0x3d7a5d9f	0.06112444
106	0xbd23414b	-0.03985719
107	0xbda43e13	-0.08019652
108	0xbc5d459f	-0.0135053685
109	0x3dd11c15	0.10210434
110	0xbd25fb75	-0.04052301
111	0x3ab09dd7	0.0013474774
112	0xbd930bb9	-0.0717997
113	0x3d126c22	0.035747655
114	0x3dc26f8b	0.094939314
115	0xbc9fc030	-0.019500822
116	0xbdbbacad	-0.09163795
117	0xbc8a268a	-0.01686408
118	0xbd3143f5	-0.0432777
119	0xbd4892d2	-0.048968144
120	0xbc95384a	-0.018215317
121	0x3cc4d23c	0.024026029
122	0x3b05f588	0.0020440537
123	0xbd865b1e	-0.06560348
124	0x3cf8085a	0.03027742
125	0xbd87f3b8	-0.066382825
126	0x3d36b325	0.04460444
127	0xbcb46ce2	-0.022024576
128	0x3d8f6b21	0.07002855
129	0x3c06ea44	0.008234564
130	0x3cb09784	0.021556623
131	0x3e094d8d	0.1340849
132	0xbdb186ce	-0.0866829
133	0xbcc2bcd0	-0.023771673
134	0x3d4e8d2c	0.0504276
135	0xbcbe31c8	-0.023217097
136	0xbc7022e4	-0.014656756
137	0xbd8613a0	-0.06546712
138	0xbd39f54b	-0.045399945
139	0xbd6d4ac0	-0.057932615
140	0x3cdd9eeb	0.027053317
141	0xbdb31167	-0.087435536
142	0xbbb6533e	-0.0055641225
143	0x3c218849	0.009859153
144	0x398cd284	0.00026859727
145	0x3cd8a2d7	0.026444836
146	0x3d896093	0.06707873
147	0x3d8d8d7b	0.06911751
148	0xb8821374	-6.2025065e-05
149	0xbceaa2ec	-0.02864214
150	0x3d341336	0.043963633
151	0x3d35ac07	0.04435351
152	0x3c9739de	0.01846021
153	0x3d2423ee	0.040073328
154	0xbd932032	-0.07183875
155	0xbc06e848	-0.008234091
156	0x3d0ac5e0	0.033880115
157	0xbd937d4e	-0.07201634
158	0xbc0737c2	-0.00825304
159	0xbd18501f	-0.037185784
160	0xbd1b844c	-0.037967965
161	0xbb8e3ddf	-0.0043408717
162	0x3cd42eab	0.02590116
163	0x3d6aa990	0.057290614
164	0xbd291989	-0.041284118
165	0x3d1e012a	0.03857533
166	0x3c9e3a8e	0.01931503
167	0xbd237bd5	-0.039913017
168	0x3d3c515a	0.04597602
169	0x3d34eebc	0.044172987
170	0xbd760577	-0.060063805
171	0x3cbdb1d4	0.023156084
172	0xbd1c4d01	-0.038159374
173	0x3d9c151c	0.07621214
174	0xbbc831a1	-0.006109432
175	0x3de84b2a	0.113424614
176	0xbd069d57	-0.032864895
177	0xbd81f2c5	-0.06345133
178	0x3c980686	0.018557798
179	0x3cd177a6	0.025569748
180	0xbd3482fc	-0.04407023
181	0x3d78517a	0.060624577
182	0x3aeff040	0.0018305853
183	0xbc8e3f5f	-0.017364202
184	0xbd5683e7	-0.052371886
185	0x3c32ab8c	0.010905158
186	0x3cea4b63	0.0286004
187	0x3d546cfb	0.051861744
188	0x3d89430d	0.06702242
189	0x3d1a766d	0.037710596
190	0x3d560a84	0.052256122
191	0xbd47c933	-0.048775863
192	0xbd921904	-0.071336776
193	0x3cb2290e	0.021748092
194	0xbcd93764	-0.02651567
195	0x3c2c1ca7	0.010504878
196	0xbd7b2b19	-0.061320398
197	0x3b07e382	0.002073497
198	0xbd726d1e	-0.059186094
199	0x3dbc574b	0.09196337
200	0x3d5a34d7	0.05327305
201	0xbb897e93	-0.004195997
202	0x3d706440	0.058689356
203	0xbbf13b4c	-0.007361805
204	0xbc65246f	-0.013985737
205	0xbd8aa1a0	-0.06769109
206	0xbc616602	-0.013757231
207	0xbca53948	-0.020168915
208	0x3d69425e	0.05694806
209	0xbc39201d	-0.01129916
210	0xbccc5dc2	-0.024947051
211	0xbc3788a5	-0.011202012
212	0xbd075f23	-0.033049714
213	0x3d8f5222	0.069980875
214	0x3cc26983	0.023731953
215	0xbd35b873	-0.044365358
216	0xbce25f8f	-0.027633457
217	0xbc5f8ab5	-0.01364391
218	0x3cd39088	0.025825754
219	0x3d0d6112	0.0345164
220	0xbbd5ae9f	-0.0065210606
221	0x3d6e23e7	0.058139708
222	0x3cf0f076	0.029411536
223	0x3d89cee7	0.067289166
224	0xbcc2fe0a	-0.023802776
225	0x3d8e1f67	0.06939583
226	0x3d1fd2da	0.039019443
227	0x3d0ea296	0.034823023
228	0xbc4933cd	-0.012280417
229	0xbb68b338	-0.0035507213
230	0x3ab4d52c	0.001379644
231	0xbd9186c7	-0.07105785
232	0xbd00b8f0	-0.03142637
233	0xbcd6c231	-0.026215645
234	0x3c871d27	0.016493393
235	0x3bccac62	0.0062461356
236	0xbd633f7a	-0.055480458
237	0x3b4f08f3	0.0031591028
238	0xbdbe17cd	-0.092818834
239	0x3c42c726	0.011888301
240	0xbd95041d	-0.07276175
241	0xbd32e0c7	-0.043671396
242	0x3c5b0497	0.0133677935
243	0xbccabcc5	-0.024748215
244	0x3d07af04	0.033125892
245	0xbc23db5e	-0.010001032
246	0xbbe1fa5c	-0.0068963002
247	0x3cca805d	0.024719412
248	0x3cebbd9e	0.02877694
249	0xbd9bde2c	-0.07610735
250	0xbd6b9d42	-0.05752302
251	0x3ca376aa	0.019954044
252	0xbcbfe34f	-0.023423819
253	0x3d066587	0.032811668
254	0x3dc1cd64	0.09463003
255	0x3ba77ccd	0.005111313

weight f4 [100]
0	0x3f681712	0.906602
1	0x3f76434e	0.9619645
2	0x3f67615e	0.90382946
3	0x3f6ee935	0.93324596
4	0x3f6be49d	0.9214571
5	0x3f7b8e51	0.9826403
6	0x3f6bc6c1	0.9210015
7	0x3f6e6459	0.9312187
8	0x3f6e4e5e	0.9308833
9	0x3f711a59	0.9418083
10	0x3f74fcaf	0.95698065
11	0x3f663469	0.8992372
12	0x3f62404e	0.8837937
13	0x3f70ec8d	0.9411095
14	0x3f6a7a43	0.91592807
15	0x3f72ed3c	0.9489324
16	0x3f780163	0.96877116
17	0x3f691657	0.9104971
18	0x3f701913	0.9378826
19	0x3f7abba5	0.9794257
20	0x3f685960	0.90761375
21	0x3f6f50c3	0.9348261
22	0x3f6f6e24	0.93527436
23	0x3f71656a	0.9429537
24	0x3f67b192	0.90505326
25	0x3f698a82	0.9122697
26	0x3f80f315	1.0074183
27	0x3f7c40c4	0.98536325
28	0x3f7838bb	0.96961564
29	0x3f6df5f5	0.92953426
30	0x3f807867	1.0036744
31	0x3f726f0b	0.9470069
32	0x3f730ce6	0.94941556
33	0x3f7967a3	0.9742376
34	0x3f81b8f3	1.0134567
35	0x3f754023	0.9580099
36	0x3f67fc32	0.90619195
37	0x3f7109d2	0.9415561
38	0x3f6de162	0.9292203
39	0x3f77dc15	0.96820194
40	0x3f7a6849	0.97815377
41	0x3f70a855	0.94006854
42	0x3f7e8789	0.9942556
43	0x3f6fc571	0.93660647
44	0x3f70542b	0.9387843
45	0x3f6b45a8	0.9190316
46	0x3f7304b4	0.9492905
47	0x3f725d04	0.9467318
48	0x3f7ec90e	0.99525535
49	0x3f69cbdf	0.9132671
50	0x3f75a0c8	0.9594846
51	0x3f70fb7a	0.9413372
52	0x3f772081	0.9653397
53	0x3f76654d	0.9624832
54	0x3f6abe5e	0.9169673
55	0x3f7b6d65	0.982138
56	0x3f70c576	0.940513
57	0x3f64e074	0.8940499
58	0x3f72b531	0.94807726
59	0x3f72bdee	0.9482106
60	0x3f722389	0.9458547
61	0x3f6c1b19	0.9222885
62	0x3f7efa03	0.9960024
63	0x3f6ea993	0.932275
64	0x3f6ab39b	0.91680306
65	0x3f774d1e	0.96602046
66	0x3f6edc01	0.9330445
67	0x3f6cb90b	0.92469853
68	0x3f6c6060	0.92334557
69	0x3f69c3af	0.91314214
70	0x3f646605	0.8921817
71	0x3f6a4947	0.9151806
72	0x3f706bc7	0.93914455
73	0x3f70a7b2	0.9400588
74	0x3f711f5a	0.94188464
75	0x3f80e295	1.0069147
76	0x3f786c3c	0.9704015
77	0x3f696d5f	0.9118251
78	0x3f7d78a2	0.99012196
79	0x3f7661f1	0.96243197
80	0x3f6eb1a4	0.9323981
81	0x3f6eabd5	0.93230945
82	0x3f70ab7f	0.9401168
83	0x3f72ae51	0.94797236
84	0x3f67d64b	0.9056136
85	0x3f60fa1d	0.8788164
86	0x3f736cbf	0.9508781
87	0x3f6c6d6b	0.9235446
88	0x3f7979f1	0.9745169
89	0x3f72c245	0.9482768
90	0x3f7a0128	0.97658014
91	0x3f8000b3	1.0000213
92	0x3f600e13	0.87521476
93	0x3f73e0fa	0.9526516
94	0x3f6d7a3d	0.92764646
95	0x3f6b038b	0.9180228
96	0x3f761be7	0.96136326
97	0x3f713579	0.9422222
98	0x3f6e97c3	0.9320032
99	0x3f716d9f	0.94307894

bias f4 [100]
0	0xbe5b3a4a	-0.21408954
1	0x3e45f6de	0.19332454
2	0x3e64c9ae	0.2234256
3	0xbe22614c	-0.15857428
4	0x3e751b37	0.23936163
5	0x3e3e1229	0.18561615
6	0x3e3e6f37	0.18597113
7	0x3e3ea37a	0.18617049
8	0xbe15efa6	-0.146422
9	0xbe7dfd04	-0.24803549
10	0x3e85577c	0.26043308
11	0xbea02adf	-0.31282708
12	0x3eb51d07	0.3537371
13	0x3e3961eb	0.18103759
14	0xbea59294	-0.32338393
15	0x3e44e6a5	0.19228609
16	0x3e4a5539	0.19759072
17	0xbe37470c	-0.17898196
18	0xbe96d5e1	-0.29460052
19	0xbe76cacc	-0.24100798
20	0xbe8535ee	-0.26017708
21	0xbe580794	-0.21096641
22	0xbe8e5f2b	-0.27806982
23	0x3e6a2da5	0.22868975
24	0xbe7a5c60	-0.24449301
25	0x3e6377fd	0.2221374
26	0x3e9b38d2	0.30316788
27	0xbe6e760c	-0.23287219
28	0xbe82f293	-0.25575694
29	0xbe506596	-0.20351252
30	0xbe6e816b	-0.23291557
31	0x3df879d0	0.12132609
32	0xbe435af7	-0.19077669
33	0xbe5b3c4a	-0.21409717
34	0x3e983fd9	0.29736212
35	0x3e7bf257	0.24604164
36	0x3e68c65b	0.22731917
37	0xbe94c16f	-0.29053828
38	0xbe64104c	-0.22271842
39	0x3e6d2195	0.23157342
40	0xbe918a27	-0.28425714
41	0x3e5f0227	0.21778165
42	0x3e6bd70e	0.23031256
43	0x3e63b53b	0.22237103
44	0x3e7f186b	0.24911658
45	0x3e53f97d	0.20700641
46	0x3e432f5a	0.19061032
47	0x3e75847e	0.23976323
48	0x3e83cb03	0.25740823
49	0x3e587c87	0.21141253
50	0x3e731cdd	0.23741479
51	0xbe0aa87d	-0.13540836
52	0xbe544c05	-0.20732124
53	0xbe440bc7	-0.19145118
54	0xbdf41a5c	-0.1191909
55	0xbe374959	-0.17899074
56	0xbe588b3a	-0.2114686
57	0xbe9ebaed	-0.31001988
58	0x3e81b9a0	0.25336933
59	0x3e79b451	0.24385192
60	0xbe5780e9	-0.21045269
61	0xbe5c2a91	-0.21500613
62	0x3e4a7bea	0.19773832
63	0x3e52c0ca	0.20581356
64	0x3e8463c0	0.25857353
65	0x3eb810ed	0.35950413
66	0xbe636f8c	-0.2221052
67	0x3e54e6d9	0.20791186
68	0xbea08145	-0.31348625
69	0x3e47e46f	0.19520734
70	0x3e81e74c	0.25371778
71	0xbe588c8a	-0.21147361
72	0xbe610e0c	-0.21978015
73	0xbe58f59a	-0.2118744
74	0x3e4ffbea	0.20310941
75	0x3e48b5ab	0.19600551
76	0xbe6b01e0	-0.22949934
77	0xbe961903	-0.29315957
78	0x3e71427c	0.23560518
79	0x3e028f35	0.12749942
80	0x3eaf4097	0.34228966
81	0xbe4ea4d6	-0.20180067
82	0xbe60f05c	-0.2196669
83	0xbe8494d6	-0.25894803
84	0xbe681308	-0.2266351
85	0xbea547d7	-0.32281372
86	0xbe94afa9	-0.29040268
87	0xbe023ad2	-0.1271775
88	0x3e5c526f	0.21515821
89	0x3e806732	0.25078732
90	0x3e585f46	0.21130094
91	0xbe6b3a6e	-0.22971508
92	0xbe8a3e08	-0.2700045
93	0x3e7c606c	0.24646157
94	0x3e5db259	0.21650065
95	0x3dc3cca8	0.095605195
96	0x3e8e2522	0.27762705
97	0x3e6585e4	0.22414356
98	0xbe48e77d	-0.19619556
99	0xbe84529e	-0.25844282

running_mean f4 [100]
0	0x3f7d7882	0.99012005
1	0x3f5084b8	0.8145251
2	0x3f5864c0	0.8452873
3	0x3f6d5567	0.9270844
4	0x3f77674c	0.96641994
5	0x3f56a693	0.8384792
6	0x3f639f24	0.88914704
7	0x3f79ab16	0.9752668
8	0x3f351cba	0.7074696
9	0x3f7bc8df	0.9835338
10	0x3f4f3d38	0.8095279
11	0x3f9f80a6	1.2461135
12	0x3fcec9e9	1.6155368
13	0x3f891c85	1.0711828
14	0x3fca224b	1.5791715
15	0x3f41f461	0.7576352
16	0x3faaeb11	1.3352987
17	0x3f050aeb	0.51969784
18	0x3f4c71ed	0.79861337
19	0x3f115bb9	0.5678058
20	0x3fab88e4	1.3401151
21	0x3f723212	0.9460765
22	0x3f3e15ee	0.7425221
23	0x3f712c64	0.9420836
24	0x3f550edc	0.832258
25	0x3f82f8ee	1.0232217
26	0x3f3f23e5	0.74664146
27	0x3f884de0	1.0648766
28	0x3f5a565e	0.85288036
29	0x3f934fa3	1.1508678
30	0x3f3dc11a	0.74122775
31	0x3f070e68	0.5275636
32	0x3f375586	0.71614873
33	0x3f3a8ffb	0.72875947
34	0x3f62d217	0.8860182
35	0x3f1fc6fd	0.6241301
36	0x3f0a18ee	0.5394429
37	0x3f58b564	0.8465178
38	0x3f9cd75e	1.2253225
39	0x3f343e9a	0.7040802
40	0x3f819354	1.0123086
41	0x3f12a8cb	0.5728881
42	0x3f9e12a3	1.2349437
43	0x3f432dbf	0.7624168
44	0x3f75feb7	0.9609179
45	0x3fd63d62	1.6737483
46	0x3f8df450	1.1090183
47	0x4009db5b	2.1540134
48	0x3f41bc08	0.7567754
49	0x3f465acc	0.77482295
50	0x3f9cd0f5	1.2251269
51	0x3f1b9e3d	0.6078833
52	0x3f5b9141	0.85768515
53	0x3f413550	0.75471973
54	0x3f24a093	0.64307517
55	0x3f5b30b2	0.8562118
56	0x3f44b919	0.76844937
57	0x3f26bf09	0.65135247
58	0x3f4d1bd6	0.801206
59	0x3f026bd4	0.5094578
60	0x3faecf60	1.3657036
61	0x3f534412	0.8252574
62	0x3f659064	0.8967345
63	0x3f12c7d6	0.57336175
64	0x3f6dd7f3	0.9290764
65	0x3f19ad66	0.6003021
66	0x3f7b1e79	0.9809337
67	0x3f5320a8	0.82471704
68	0x3f54fc56	0.83197534
69	0x3fa9b032	1.3256896
70	0x3f1ac290	0.6045313
71	0x3f55cb19	0.8351303
72	0x3f21279a	0.6295105
73	0x3f462c3c	0.77411246
74	0x3fb9a36e	1.4503
75	0x3f7646ba	0.9620167
76	0x3fd18e85	1.6371619
77	0x3f18b9d8	0.59658575
78	0x3f41b2f4	0.75663686
79	0x3eff17f3	0.4982296
80	0x3fb28c77	1.3949116
81	0x3f92c2cc	1.1465697
82	0x3f377492	0.7166225
83	0x3fbc9a3e	1.4734571
84	0x3f05a8bb	0.5221059
85	0x3f6f7258	0.9353385
86	0x3f36e01f	0.7143573
87	0x3f2a4888	0.66516924
88	0x3f788be1	0.9708844
89	0x3fcb6337	1.5889653
90	0x3f4e597e	0.80605304
91	0x3f1b1904	0.60585046
92	0x3eefa2e6	0.4680397
93	0x3f98807e	1.1914213
94	0x3f345ead	0.70456964
95	0x3f702f87	0.9382252
96	0x3fd3d7cb	1.655023
97	0x3f944a96	1.1585262
98	0x3f764d02	0.96211255
99	0x3f853446	1.0406578

running_var f4 [100]
0	0x4047105e	3.110374
1	0x400a537e	2.161346
2	0x3f9cc9ea	1.2249119
3	0x3fc93794	1.5720086
4	0x3fd23a1a	1.6423981
5	0x3fbfac44	1.4974446
6	0x3f90920c	1.129457
7	0x3fa57638	1.2926702
8	0x3fda6115	1.7060877
9	0x3fbfc421	1.4981729
10	0x3f4f77c4	0.8104212
11	0x4018927c	2.3839407
12	0x408bb84a	4.366246
13	0x3fd8c2c2	1.6934435
14	0x405e3950	3.472248
15	0x3fbea9aa	1.4895527
16	0x4049b71a	3.1518006
17	0x3f06bccd	0.5263184
18	0x3f89fa03	1.0779423
19	0x3f999fa9	1.200185
20	0x40827ec2	4.0779734
21	0x3fcec07d	1.6152493
22	0x40156425	2.3342373
23	0x406e3c4c	3.7224302
24	0x3f8de4f8	1.1085501
25	0x4000b96c	2.0113173
26	0x3f9447c5	1.1584402
27	0x401f249d	2.4866097
28	0x3fae82b2	1.3633635
29	0x40477371	3.116421
30	0x3f5d5fd5	0.86474353
31	0x3f8d5ecc	1.1044555
32	0x3f858473	1.0431045
33	0x401d6ca0	2.459755
34	0x3faa4142	1.3301165
35	0x3f2445c8	0.6416898
36	0x3f005b92	0.50139725
37	0x3f9ac6f6	1.2091968
38	0x4035ea64	2.842431
39	0x4008d530	2.138012
40	0x3fdb8051	1.7148534
41	0x3fecd9e3	1.8503994
42	0x40830d57	4.0953784
43	0x3fdd7ab9	1.7303077
44	0x3fee6765	1.8625304
45	0x406e2a76	3.7213416
46	0x400f4fd0	2.2392464
47	0x40eb1b90	7.3471146
48	0x3fb77d46	1.4335105
49	0x3f5de816	0.8668226
50	0x40c021a4	6.0041065
51	0x3f6b0189	0.9179922
52	0x3fa2af87	1.2709817
53	0x3ff658e6	1.924588
54	0x3f4dd0db	0.80396813
55	0x3fa1c84e	1.2639253
56	0x401b3384	2.4250193
57	0x3f686094	0.90772367
58	0x3fa0f6fc	1.2575374
59	0x3f920591	1.1407949
60	0x4085ab45	4.177157
61	0x40341308	2.8136616
62	0x3fc959f4	1.5730577
63	0x3f4f34df	0.8094005
64	0x3fbc1237	1.4693059
65	0x3f93b977	1.1540974
66	0x4079733a	3.8976579
67	0x3f87e4c5	1.061669
68	0x3fdb52b1	1.713461
69	0x401c1ae0	2.4391403
70	0x3fbb1a5f	1.4617423
71	0x3fc97a53	1.5740455
72	0x3f8541dd	1.0410725
73	0x3ff696d3	1.9264778
74	0x4063a4a6	3.5569243
75	0x4012fd7c	2.2967215
76	0x40aba809	5.364262
77	0x3f9a2e31	1.2045346
78	0x3f91ef38	1.1401129
79	0x3f1720d5	0.5903447
80	0x41026219	8.14895
81	0x40172740	2.3617706
82	0x3f8da70d	1.1066605
83	0x4050e20a	3.2637963
84	0x3f5e85f3	0.8692314
85	0x400543df	2.0822675
86	0x3f6d2f50	0.9265032
87	0x3f580f75	0.84398586
88	0x3ff080a0	1.8789253
89	0x407fa275	3.9942906
90	0x3faa3918	1.3298674
91	0x3fc169e2	1.5110438
92	0x3f3145c5	0.69247085
93	0x3ff2725b	1.8941149
94	0x3fa222de	1.2666891
95	0x3facf212	1.3511374
96	0x40a7cfac	5.2441006
97	0x3fd2c128	1.6465197
98	0x4036a56c	2.8538465
99	0x3ffd989d	1.9812199
